assign05/output/model_linear attempt.pth (torch, 646199 bytes, 12 tensors)

net_stack.0.weight f4 [32, 3, 3, 3]
0	0x3e2ba974	0.1676386
1	0xbbf97a9a	-0.007613492
2	0x3c9d55ec	0.01920601
3	0xbdafb2e2	-0.08579041
4	0xbe8780ee	-0.26465553
5	0xbe4121b8	-0.18860519
6	0x3e24e82c	0.16104192
7	0xbdc1d5e2	-0.09464623
8	0xbd9fb007	-0.077972464
9	0x3d9a1b64	0.075247556
10	0xbe06443a	-0.13111964
11	0xbe1d6c34	-0.15373307
12	0xbdd4d18f	-0.10391533
13	0xbe89d39c	-0.26919258
14	0x3daf33b4	0.085547835
15	0x3e5f8f08	0.21831906
16	0x3d329c07	0.04360583
17	0x3bbd2f6f	0.005773477
18	0xbb002edc	-0.001955918
19	0x3de30d9c	0.1108658
20	0x3d6d5670	0.05794376
21	0xbda26362	-0.07929112
22	0x3df4075c	0.11915466
23	0x3e64d44d	0.22346611
24	0xbbbffa25	-0.005858677
25	0xbe10f5f2	-0.1415632
26	0x3e1426af	0.14467882
27	0x3e164fcf	0.14678882
28	0xbcf44d65	-0.02982206
29	0x3dae6e78	0.08517164
30	0xbe23e86c	-0.1600663
31	0x3e110025	0.14160211
32	0xbe491257	-0.19635902
33	0xbd7ab3c0	-0.06120658
34	0x3e4eb8cf	0.20187686
35	0xbe52ea5b	-0.20597212
36	0x3e074bec	0.13212556
37	0x3e3bf41b	0.18354838
38	0xbe4e6663	-0.20156245
39	0xbc8c4cb3	-0.017126417
40	0x3e034e29	0.12822784
41	0xbc2da3ee	-0.010598166
42	0xbe25a565	-0.16176374
43	0x3e833ce6	0.256324
44	0xbcec6f34	-0.02886162
45	0xbd138661	-0.036016826
46	0xbe0e0fd7	-0.1387323
47	0x3d781c9c	0.06057416
48	0xbe489339	-0.19587411
49	0x3e172639	0.14760675
50	0xbdd24bb9	-0.10268349
51	0x3d21c169	0.03949109
52	0x3e72e940	0.2372179
53	0xbe03f7fc	-0.12887567
54	0x3bdcc95c	0.006737871
55	0xbd1d1cb0	-0.038357437
56	0xbdb731ed	-0.089450695
57	0x3e22a0be	0.15881631
58	0x3e895969	0.26826027
59	0x3e8f3647	0.27971098
60	0x3e43517f	0.19074057
61	0x3cb04161	0.02151555
62	0xbdc437cd	-0.09580956
63	0xbd9c0eaf	-0.07619988
64	0x3e0a1a75	0.13486655
65	0xbe1379d1	-0.14401938
66	0xbaab5c61	-0.0013073796
67	0xbdadae24	-0.0848048
68	0x3d890aa2	0.06691481
69	0xbd1edbe0	-0.038783908
70	0x3e17bd1e	0.14818236
71	0x3d9e41f8	0.07727426
72	0x3e32c76a	0.17458883
73	0xbcaaf290	-0.020867616
74	0xbdd03771	-0.101668246
75	0xbbe00d20	-0.006837502
76	0xbdd0a911	-0.10188497
77	0xbe4777b7	-0.19479261
78	0xbe6e2721	-0.23257114
79	0xbe8ba68d	-0.27275506
80	0x3c551c9f	0.013007312
81	0x3c26cabc	0.010180172
82	0xbd1da9bc	-0.03849195
83	0x3c8b9511	0.017038854
84	0x3e29b671	0.16573502
85	0xbb6168a9	-0.0034394658
86	0x3e8c193e	0.27363008
87	0x3d302904	0.043007866
88	0x3d482a8c	0.0488687
89	0x3e8c7a97	0.2743728
90	0xbe66fa6b	-0.22556464
91	0xbddccb58	-0.10780972
92	0x3e047746	0.12936124
93	0xbe5c12ef	-0.21491598
94	0xbe2965d2	-0.16542748
95	0xbd24ce47	-0.040235784
96	0xbe1a4505	-0.15065391
97	0xbe4d9853	-0.20077638
98	0x3e1e9fcb	0.15490644
99	0xbd1d296e	-0.03836959
100	0xbe04ea80	-0.1298008
101	0x3dd49fed	0.10382066
102	0xbde13af6	-0.10997574
103	0x3d6eef78	0.058333844
104	0x3e57dd2b	0.21080463
105	0x3de0d5ab	0.10978254
106	0xbdb9fc24	-0.09081295
107	0xbd45556b	-0.048177164
108	0x3df881fd	0.12134168
109	0x3e5621e0	0.2091136
110	0x3dc9744b	0.09836634
111	0x3e7ff4f3	0.24995784
112	0xbc9581c9	-0.018250363
113	0xbdd4631b	-0.10370465
114	0x3dee5490	0.11637223
115	0xbe309da6	-0.17247638
116	0xbb582c1b	-0.0032985273
117	0xbd841730	-0.06449735
118	0x3d8bb1cb	0.06821021
119	0xbc54978e	-0.012975587
120	0x3e4b6eb8	0.19866455
121	0xbe53a514	-0.20668441
122	0xbdc164d2	-0.09443058
123	0xbcd255c8	-0.02567567
124	0x3d9eef92	0.07760538
125	0xbe3f8bff	-0.18705748
126	0xbe199ce1	-0.15001251
127	0xbd6cc4a4	-0.05780472
128	0x3d5466f0	0.05185598
129	0xbe0188f1	-0.12649895
130	0x3cb2ed4b	0.021841666
131	0xbd0159bf	-0.03157973
132	0xbe484e6b	-0.19561164
133	0xbd7b1d60	-0.06130731
134	0xb8dedda6	-0.0001062707
135	0xbdd8fe7d	-0.10595415
136	0x3d8ef606	0.06980519
137	0xbdc17ea4	-0.09447983
138	0xbd66b41e	-0.056324117
139	0x3e02d2b1	0.12775685
140	0xbd92e1d7	-0.07171982
141	0xbe8d2061	-0.27563766
142	0x3d04ce3b	0.03242324
143	0xbdc7344b	-0.09726771
144	0x3e49755d	0.19673677
145	0x3e8fb089	0.28064373
146	0x3de7d634	0.11320153
147	0x3e3eea69	0.18644108
148	0x3d8055d4	0.062663704
149	0x3e28e042	0.16491798
150	0xbe589fff	-0.21154784
151	0xbcff1222	-0.031136576
152	0xbd879e62	-0.06622006
153	0x3e0a3905	0.13498314
154	0xbe0b2342	-0.13587669
155	0xbda70f61	-0.0815723
156	0xbe11d3bb	-0.14240925
157	0xbe13c5e0	-0.14430952
158	0x3d5c5616	0.053793035
159	0xbdcd6eeb	-0.100309215
160	0x3e20d138	0.1570481
161	0x3b7a5481	0.003819734
162	0x3e410c17	0.18852268
163	0xbdb2299a	-0.08699341
164	0x3d6ed7dc	0.05831133
165	0x3da6480f	0.08119213
166	0xbc78dd7d	-0.015189526
167	0xbc65a031	-0.014015243
168	0xbe2d3c56	-0.16917548
169	0x3e2908ee	0.16507313
170	0x3d9d141e	0.07669853
171	0xbe1a0809	-0.15042128
172	0x3e483e45	0.19555004
173	0x3ca3f62d	0.020014847
174	0xbe83f4ab	-0.25772604
175	0xbe86c23a	-0.26320058
176	0x3c901052	0.017585907
177	0xbe8b04fe	-0.27152246
178	0x3d66383d	0.056205977
179	0xbe1ec771	-0.15505768
180	0x3e2a4cf5	0.1663092
181	0x3e2c7cd9	0.168445
182	0x3bccb8bc	0.006247608
183	0xbde2967a	-0.110638574
184	0xbc878ab8	-0.016545638
185	0x3e41b94a	0.18918338
186	0xbe682235	-0.22669299
187	0xbdbc832a	-0.09204705
188	0xbe213080	-0.15741158
189	0xbdab439e	-0.08362506
190	0x3e477e32	0.19481733
191	0xbe555e70	-0.20836806
192	0xbdd7e096	-0.10540883
193	0xbcde7140	-0.027153611
194	0xbd85249c	-0.06501123
195	0xbe2bf235	-0.16791613
196	0x3e3376fc	0.17525858
197	0x3e1a5acc	0.15073699
198	0xbda3518b	-0.079745375
199	0x3e0d39d0	0.13791585
200	0xbe94c2aa	-0.29054767
201	0xbbb4f2b7	-0.005522098
202	0x3e5ec67c	0.21755403
203	0xbe491364	-0.19636303
204	0xbdc1195c	-0.09428665
205	0x3ebe2de5	0.3714439
206	0x3e8a2735	0.26983038
207	0xbe02ef2f	-0.12786554
208	0x3daf30ea	0.085542515
209	0xbe8d2f11	-0.2757497
210	0xbe6fe318	-0.23426473
211	0x3df33611	0.11875547
212	0xbd137fb9	-0.036010478
213	0xbc8c00c4	-0.017090209
214	0x3e1bf349	0.15229525
215	0x3e8ef7e7	0.2792351
216	0x3e18550a	0.1487619
217	0x3dac66ee	0.0841807
218	0x3e4f8089	0.20263876
219	0x3d4b8881	0.049690727
220	0xbe1e0e08	-0.1543504
221	0xbbd7455e	-0.0065695485
222	0xbe4f1fd4	-0.20226985
223	0xbdc26649	-0.094921656
224	0x3cd847e6	0.026401471
225	0xbe367cbc	-0.1782102
226	0xbdfe630b	-0.12421235
227	0xbd8914e8	-0.06693441
228	0x3e0d7374	0.13813573
229	0xbe3292a4	-0.17438751
230	0xbe6ec44a	-0.23317066
231	0x3d386378	0.045016736
232	0xbe37ccb4	-0.17949182
233	0x3d485ed7	0.04891857
234	0x3e442486	0.19154558
235	0x3d53fb18	0.051753134
236	0x3ca32546	0.019915234
237	0x3e49b93c	0.19699568
238	0x3e0645da	0.13112584
239	0xbda2cc5e	-0.07949136
240	0x3e2eb5cf	0.17061542
241	0xbc4248a3	-0.011858138
242	0x3e233110	0.15936685
243	0x3d9abd6c	0.075556606
244	0x3d0a577f	0.03377485
245	0xbd2dd5d8	-0.042440265
246	0x3c76dbf5	0.01506709
247	0x3dc1e124	0.0946677
248	0x3c9dc57d	0.019259209
249	0x3e177317	0.14789997
250	0x3c8db23d	0.017296905
251	0x3d83ade4	0.064296514
252	0xbc99b641	-0.018763663
253	0xbe34a588	-0.1764127
254	0xbddddb21	-0.10832811
255	0x3e3feae4	0.18741947

net_stack.0.bias f4 [32]
0	0x3e09c65f	0.13454579
1	0x3d918782	0.07105924
2	0xbe49b5f9	-0.19698323
3	0x3db8e8a8	0.09028751
4	0x3d12b084	0.03581287
5	0x3d695e03	0.056974422
6	0x3e4c5957	0.19955955
7	0x3d95b631	0.07310141
8	0x3b5ccb8c	0.003369066
9	0x3d9c0e4f	0.07619917
10	0x3d884c51	0.06655181
11	0x3d0206e7	0.031744864
12	0x3d9dee51	0.07711471
13	0x3e3b9303	0.183178
14	0x3d05c9f3	0.032663297
15	0xbe2170e5	-0.15765722
16	0x3d077347	0.03306892
17	0x3d2aeed8	0.041731685
18	0x3cb77929	0.02239664
19	0x3de3f6a4	0.11131027
20	0x3aa4f7ed	0.0012586095
21	0x3d2538cb	0.040337365
22	0xbda39ef6	-0.07989304
23	0x3d95fa63	0.07323148
24	0xbe54eaf5	-0.20792754
25	0x3e0d901a	0.13824502
26	0x3d945346	0.07242446
27	0xbe26a27e	-0.16272923
28	0xbcf76fe7	-0.030204726
29	0xbda958ea	-0.08268912
30	0xbe2ae848	-0.16690171
31	0x3df0f900	0.11766243

net_stack.2.weight f4 [32, 32, 3, 3]
0	0xbd9378c7	-0.07200771
1	0x3dca24da	0.0987031
2	0x3d7f03ba	0.062259413
3	0xbd8e6774	-0.06953326
4	0x3da9459a	0.082652286
5	0x3c3a5297	0.01137223
6	0xbb6eb5b4	-0.0036424221
7	0x3dddb4ef	0.10825526
8	0x3d828d4a	0.06374605
9	0x3e0b0c87	0.13578998
10	0xbd995d0c	-0.074884504
11	0xbc6ea22a	-0.01456503
12	0x3e5387dd	0.20657296
13	0xbe288039	-0.16455163
14	0xbde772d2	-0.11301197
15	0x3e0aa83a	0.13540736
16	0xbd1c6a0a	-0.038187064
17	0xbd4c950e	-0.049946837
18	0x3c0bf089	0.008541235
19	0xbdc0d5b9	-0.09415764
20	0xbdba9d94	-0.09112087
21	0x3d734fbd	0.059402216
22	0x3d0c01fe	0.034181587
23	0xbd7c69a1	-0.061624173
24	0x3c37ea62	0.011225315
25	0xbd04477a	-0.032294728
26	0xbe1a6dec	-0.15080994
27	0xbe9c5f3b	-0.30541405
28	0xbd2d84ef	-0.042363103
29	0x3df42315	0.11920754
30	0xbe94525a	-0.2896908
31	0xbca86fb2	-0.020561073
32	0x3e626f57	0.22112785
33	0xbe5bac81	-0.21452524
34	0xbd3d375c	-0.046195373
35	0x3e0c119d	0.13678594
36	0x3be01dc5	0.0068394863
37	0x3be4b033	0.0069790124
38	0x3cc74c28	0.024328306
39	0x3d6b24b8	0.057408065
40	0xbcd1a7ac	-0.025592647
41	0xbd454efe	-0.048171036
42	0x3d71db11	0.05904681
43	0x3a5d4ff5	0.00084423955
44	0x3c2a63b9	0.010399752
45	0xbd6c4793	-0.057685446
46	0xbeaa5c69	-0.33273628
47	0x3ca600f5	0.020264128
48	0xbdd3632d	-0.10321651
49	0xbecb9c6b	-0.39767775
50	0xbd506ea4	-0.050886765
51	0x3d7b6c02	0.0613823
52	0xbdf8dd3d	-0.12151573
53	0xbc9dcfcc	-0.019264124
54	0xbd8f40ce	-0.069947824
55	0xbdb3e639	-0.08784146
56	0x3e2a98bd	0.16659828
57	0xbd450889	-0.048103843
58	0x3c4d8beb	0.012545566
59	0x3e274447	0.1633464
60	0xbd9a1727	-0.07523947
61	0xbc2a6fa3	-0.010402593
62	0x3e18f00e	0.14935324
63	0xbc94f2a8	-0.018182114
64	0xbeae0930	-0.33991385
65	0xba429b85	-0.0007423687
66	0x3de7f4b6	0.11325972
67	0xbe9a5fdc	-0.3015126
68	0xbd44090e	-0.047860198
69	0x3e29a0ea	0.1656529
70	0xbe629e98	-0.22130811
71	0xbe061822	-0.13095143
72	0x3de830cc	0.11337432
73	0x3d39bb07	0.04534438
74	0xbc11bd66	-0.008895254
75	0x3babf172	0.0052472884
76	0x3d963e63	0.07336118
77	0xbd1a3d69	-0.03765622
78	0x3e175d79	0.1478175
79	0x3e1900dc	0.14941734
80	0xb8e807ee	-0.00011064099
81	0x3e14a061	0.14514305
82	0x3d894aa7	0.06703692
83	0xbd67d493	-0.05659921
84	0x3e24947c	0.16072267
85	0x3e026244	0.12732798
86	0x3a6787ef	0.00088322064
87	0x3df09692	0.11747469
88	0x3e24e8a6	0.16104373
89	0x3d52c927	0.051461365
90	0x3c8cd220	0.01719004
91	0xbc836e5d	-0.016043836
92	0x3b85b161	0.004079983
93	0x3ca8a861	0.020588102
94	0xbc2a8147	-0.010406799
95	0x3cfb1e72	0.030654166
96	0x3df0c9c8	0.11757237
97	0xbd7a2d0d	-0.06107812
98	0x3dd8e0ab	0.10589727
99	0x3c5bbed6	0.013412198
100	0xbd24ac2c	-0.04020326
101	0xbd8ccb58	-0.06874722
102	0x3dd58a7d	0.10426805
103	0x3d9ee51d	0.07758544
104	0x3cbcdeb9	0.023055421
105	0x3d2ae0d2	0.04171831
106	0x3d913f47	0.07092147
107	0xbc0f57a2	-0.008748921
108	0x3ccc721d	0.024956757
109	0xbc4d50bd	-0.012531457
110	0xbdfaba94	-0.12242618
111	0x3e2c7d88	0.16844761
112	0xbcd388b3	-0.02582202
113	0xbe106c10	-0.14103723
114	0x3e324aaa	0.17411295
115	0x3c56e3f2	0.01311587
116	0xbe549538	-0.20760047
117	0xbe79200f	-0.24328636
118	0xbdf06c5c	-0.11739418
119	0x3def7256	0.1169173
120	0xbe56f264	-0.20990902
121	0xbdd0d73b	-0.10197302
122	0x3da54430	0.08069646
123	0xbe461b78	-0.19346416
124	0xbd994447	-0.07483726
125	0x3db88d16	0.09011285
126	0x3dde0dd0	0.10842478
127	0xbc8d15b3	-0.017222261
128	0xbe12e220	-0.14344072
129	0x3df27d38	0.1184029
130	0x3ce87f9d	0.028381163
131	0xbd03c5c5	-0.03217103
132	0x3e017689	0.12642874
133	0xbd8047df	-0.06263708
134	0x3dc1a584	0.09455398
135	0xbceb2674	-0.02870486
136	0xbc82f5d0	-0.015986353
137	0xba9e2e83	-0.0012068305
138	0xbc65dc68	-0.0140296
139	0x3c67bea8	0.014144577
140	0xbc9b83cc	-0.018983744
141	0xbd164fb2	-0.036697097
142	0x3c92b75f	0.017909704
143	0xbdab1353	-0.08353295
144	0x3de34347	0.110968165
145	0xbcac1e66	-0.021010589
146	0xbe8ba4a9	-0.27274063
147	0x3d89cc88	0.06728464
148	0x3c8f39a2	0.017483536
149	0xbe2985b3	-0.16554908
150	0x3c9ae576	0.018908244
151	0xbdceac9c	-0.100915164
152	0xbdf87186	-0.12131028
153	0x3e2c5b3d	0.1683168
154	0x3d3daadd	0.046305526
155	0xbd83bea5	-0.06432847
156	0x3e2e7634	0.17037278
157	0x3dbb1a89	0.091359206
158	0xbd830dc5	-0.06399111
159	0x3dc8a5a7	0.09797221
160	0x3db81f62	0.08990361
161	0xbd0b0650	-0.033941567
162	0xbcea882c	-0.028629385
163	0xbe4a2200	-0.19739532
164	0x3cee02c4	0.029054053
165	0x3d8f6b17	0.07002848
166	0xbe9f96bd	-0.31169692
167	0x3c08d9c8	0.008352704
168	0x3df15e64	0.11785582
169	0xbea47a03	-0.32124338
170	0xbc08e490	-0.008355275
171	0x3e3a03fa	0.1816558
172	0x3cab36d0	0.02090016
173	0xbe8bf46f	-0.27334926
174	0x3e4a8dd3	0.19780664
175	0x3d1257b6	0.03572818
176	0xbe2a0aab	-0.16605632
177	0x3e4bd251	0.19904448
178	0x3d255987	0.040368583
179	0xbde2b672	-0.11069955
180	0x3e5bdde0	0.21471357
181	0xbcc19110	-0.023628742
182	0xbd57083b	-0.052498084
183	0x3e0a3176	0.1349543
184	0x3d5c0a00	0.053720474
185	0xbe14d25f	-0.14533375
186	0x3e2d1d50	0.16905713
187	0x3e2c0716	0.16799578
188	0xbd0c6748	-0.034278184
189	0xbcde0651	-0.027102621
190	0x3c3ef0f1	0.011654125
191	0xbca0fdab	-0.019652208
192	0xbd9f35c9	-0.077739306
193	0xbd9dcb83	-0.077048324
194	0x3d6c8d8f	0.05775219
195	0xbde7042a	-0.11280091
196	0xbdc6e16d	-0.09710965
197	0x3dce3afa	0.10069843
198	0x3b847852	0.0040426636
199	0x3c5c6af1	0.013453231
200	0x3d886f12	0.0666181
201	0xbad640c3	-0.0016346205
202	0x3c91f4b7	0.017816884
203	0x3c052810	0.008127227
204	0xbd002dcd	-0.03129368
205	0xbc9e0601	-0.019289972
206	0x3d5a65fc	0.053319916
207	0x3d5e39f1	0.054254476
208	0xbe072bc1	-0.13200285
209	0x3bed9057	0.0072498727
210	0x3d72c9c1	0.05927444
211	0xbdb0d3f1	-0.086341746
212	0x3c656ff6	0.014003744
213	0x3d9eddba	0.07757135
214	0xbdb8c2cf	-0.09021532
215	0x3dab3cbe	0.08361195
216	0x3db1955a	0.08671065
217	0xbd4f7b88	-0.050654918
218	0xbd52e987	-0.05149224
219	0x3d067bd9	0.032832954
220	0x3d8aa906	0.0677052
221	0xbdd549c4	-0.1041446
222	0x3d545373	0.051837396
223	0x3d53821e	0.05163776
224	0xbc800d0d	-0.015631223
225	0xbe1a36d0	-0.15059972
226	0x3cc68db1	0.024237486
227	0x3db06a53	0.0861403
228	0xbdedbdd3	-0.11608472
229	0xbb823ca5	-0.0039745145
230	0x3d603a1d	0.05474292
231	0xbda25f4e	-0.07928334
232	0xbdf28067	-0.11840897
233	0x3dabebc7	0.0839458
234	0x3d55fe20	0.052244306
235	0xbd3bbb3d	-0.04583286
236	0xbe12d545	-0.14339168
237	0x3df7444e	0.12073575
238	0x3cd336ab	0.025782904
239	0xbdd3830b	-0.10327729
240	0x3cf60b22	0.030034605
241	0xbd734a20	-0.059396863
242	0xbda0b8de	-0.078477606
243	0xbd294d0c	-0.041333243
244	0xbd544e03	-0.05183221
245	0x3d13d9db	0.036096435
246	0xbcdc4782	-0.026889566
247	0xbd95bb5a	-0.07311125
248	0x3c95f795	0.018306533
249	0x3cc923a4	0.024553128
250	0xbc959f0b	-0.018264314
251	0x3d830136	0.06396715
252	0xbd0590b0	-0.032608688
253	0xbd80bf75	-0.062865175
254	0xbd29dcc5	-0.041470308
255	0x3ca71514	0.020395793

net_stack.2.bias f4 [32]
0	0x3da2e4cb	0.07953795
1	0x3d8aab4f	0.06770956
2	0x3d926288	0.071476996
3	0xbe00beda	-0.12572804
4	0xbda3f73f	-0.08006143
5	0xbcd74eeb	-0.026282748
6	0xbd0022d4	-0.031283215
7	0x3dbabbd1	0.091178544
8	0x3d8ae5f6	0.06782143
9	0x3ca60fe4	0.02027125
10	0x3d8422b8	0.064519346
11	0x3e1dbfd4	0.15405208
12	0xbd94bf24	-0.0726302
13	0xbcba73ef	-0.02276036
14	0xbde876b4	-0.11350766
15	0xbd725612	-0.059164114
16	0xbcdb85ef	-0.026797263
17	0x3bfc9e5b	0.007709307
18	0xbdeef9d8	-0.11668748
19	0x3d5d57de	0.054038875
20	0xbd927411	-0.07151044
21	0x3ccd33ab	0.025049051
22	0x3b47d889	0.0030494055
23	0x3d56ca1b	0.052438837
24	0x3cb26b85	0.021779785
25	0x3d9dae69	0.07699282
26	0x3de8d102	0.1136799
27	0xbd83d200	-0.06436539
28	0xbc868b40	-0.016423821
29	0x3d0cea73	0.034403276
30	0xbe2ad401	-0.16682436
31	0x3c1837b1	0.009290622

net_stack.5.weight f4 [64, 32, 3, 3]
0	0xbdd0d7e3	-0.10197427
1	0x3d9dad74	0.07699099
2	0x3dd1dd96	0.10247342
3	0xbe599d6e	-0.21251461
4	0x3d2b772e	0.041861705
5	0x3cdba15d	0.026810342
6	0xbe5a82b4	-0.21338922
7	0x3c667da2	0.014068039
8	0x3d134918	0.03595838
9	0x3da505eb	0.080577694
10	0xbddfcb60	-0.109274626
11	0xbda3bc6c	-0.07994923
12	0x3e045cd1	0.12926032
13	0xbd83602e	-0.06414829
14	0xbd7f8825	-0.062385697
15	0x3e017280	0.12641335
16	0xbde2fe34	-0.11083642
17	0xbc337962	-0.010954233
18	0xbce76304	-0.028245457
19	0xbc234912	-0.009966152
20	0x3c632c90	0.013865605
21	0x3b8acb6a	0.0042356746
22	0x3d84a26d	0.06476293
23	0x39b60749	0.00034719173
24	0xbd8c9f3e	-0.068663105
25	0xbd9ad326	-0.075598046
26	0x3d208e0b	0.039197963
27	0x3d06101b	0.032730203
28	0x3d3a1491	0.04542977
29	0x3d04915e	0.032365195
30	0xbe00104a	-0.12506214
31	0xbe4e8e6d	-0.20171519
32	0xbd9fbfdf	-0.078002684
33	0xbd191942	-0.037377603
34	0xbd60f1f0	-0.05491823
35	0xbda83262	-0.08212735
36	0xbd22c0ee	-0.039734773
37	0xbd827af3	-0.06371107
38	0xbda90934	-0.082537085
39	0x3e350ed8	0.17681444
40	0x3dd5b389	0.10434634
41	0x3e3cad88	0.18425572
42	0x3dd63988	0.10460192
43	0x3d91f772	0.071272746
44	0x3d91746d	0.071022846
45	0xbd3c745b	-0.046009403
46	0xbc5c5616	-0.013448259
47	0xbcb0f887	-0.021602882
48	0xbc0c8ebc	-0.008578952
49	0xbcfb6995	-0.030689994
50	0xbd1aa2cf	-0.037752923
51	0x3b362e0e	0.0027798447
52	0x3d9f18d9	0.07768411
53	0x3ccacb99	0.024755286
54	0xbb5678e6	-0.003272587
55	0xbd4a120e	-0.049333625
56	0x3c35c934	0.011095334
57	0xbd1537bd	-0.03643011
58	0x3c92f8ce	0.017940905
59	0x3d426660	0.047460914
60	0x3ce0f4f4	0.027460553
61	0xbd75a403	-0.059970867
62	0xbd01b0ce	-0.031662755
63	0xbe36c418	-0.17848241
64	0xbe22a442	-0.15882972
65	0xbdcb9e7d	-0.099423386
66	0xbe011ce9	-0.12608685
67	0xbd353f60	-0.044249892
68	0x3a328126	0.0006809406
69	0x3d2587e8	0.040412813
70	0xbaf51e6b	-0.0018701082
71	0x3d257f88	0.040404826
72	0x3d9b8575	0.07593814
73	0xbd173bb4	-0.03692217
74	0x3d054e3c	0.032545313
75	0x3c2e3d7c	0.010634776
76	0xbd7f22cd	-0.062289048
77	0xbcfe5316	-0.031045478
78	0x3c8335ad	0.016016806
79	0x3c9030f0	0.01760146
80	0x3da99fdc	0.08282444
81	0xbd3b0916	-0.045662962
82	0x3d08ffdb	0.033447128
83	0xbb76a357	-0.003763398
84	0xbe107ecc	-0.14110869
85	0xbd294a86	-0.041330837
86	0x3b229f40	0.0024814159
87	0x3c960001	0.018310549
88	0x3c3faad0	0.01169844
89	0x3dad48c8	0.084611475
90	0x3d95b853	0.07310548
91	0x3ca84c71	0.020544263
92	0x3c49e721	0.012323172
93	0xbd651d0d	-0.055935908
94	0xbb374ada	-0.00279682
95	0xbcfd05e9	-0.030886607
96	0xbe250dce	-0.16118547
97	0xbd8cae59	-0.06869192
98	0x3ca907be	0.020633575
99	0xbe1b7212	-0.15180233
100	0xbe1465f9	-0.14492024
101	0xbe1b09b7	-0.15140425
102	0xbd84c528	-0.06482917
103	0x3c68dc07	0.014212615
104	0xbc2df3d6	-0.010617217
105	0x3d547c43	0.051876318
106	0x3d05dd6d	0.03268187
107	0x3ca6e3d4	0.020372309
108	0x3c253944	0.010084454
109	0xbd95c69d	-0.07313273
110	0xbcd0c5c7	-0.025484933
111	0x3caf30a4	0.021385498
112	0xbca43dfe	-0.020049091
113	0xbd0aa76f	-0.033851083
114	0xbd7ab380	-0.06120634
115	0xbb96559d	-0.0045878426
116	0xbd07eaaf	-0.033182796
117	0x3d58e584	0.05295326
118	0x3e066b85	0.13126953
119	0x3deefc6f	0.11669242
120	0x3d89aaf8	0.06722063
121	0x3e0279e6	0.12741813
122	0x3dcb20c7	0.09918361
123	0xbe039861	-0.12851097
124	0xbdd9962f	-0.10624348
125	0x3c12fb6c	0.008971076
126	0x3d2ef5c2	0.04271484
127	0xbb8d768e	-0.0043171113
128	0x3c625f95	0.013816734
129	0x3d83259d	0.064036585
130	0x3d3746f5	0.044745404
131	0x3db01eec	0.08599648
132	0xbd84c1c6	-0.06482272
133	0xbcab5291	-0.020913394
134	0xbbe4438f	-0.0069660614
135	0xbd1e5e83	-0.038664352
136	0xbd07141a	-0.032978155
137	0xbd28ec9a	-0.041241266
138	0x3d095435	0.03352757
139	0xbd31e1d2	-0.04342825
140	0x3ca4a539	0.020098316
141	0xbba22bca	-0.0049490677
142	0xb896c386	-7.1889765e-05
143	0x3d92764b	0.07151469
144	0xbcd8959c	-0.026438527
145	0xbccc5414	-0.024942435
146	0x3c324566	0.010880804
147	0x3d9c3411	0.076271184
148	0xbd81b2f9	-0.063329645
149	0xbc29e11c	-0.010368612
150	0x3d9cc150	0.07654059
151	0x3c8e4d03	0.017370706
152	0x3dc9719c	0.098361224
153	0x3e0b965e	0.1363158
154	0xb99e7e65	-0.0003023028
155	0xbde5eca9	-0.1122678
156	0xbb356147	-0.002767639
157	0xbcf57005	-0.029960642
158	0xbd542264	-0.05179061
159	0x3d8ba470	0.06818473
160	0xbd20203e	-0.03909325
161	0xbd3a4495	-0.04547556
162	0x3de10753	0.10987725
163	0x3e84416e	0.2583117
164	0x3e0e90ef	0.13922475
165	0xbc4f1c94	-0.012641091
166	0x3da3ff67	0.080076985
167	0x3cac617e	0.021042582
168	0xbe3d5ae5	-0.18491705
169	0xbdb66538	-0.08906025
170	0xbde58571	-0.112070926
171	0xbd44243c	-0.04788612
172	0x3b84bc14	0.004050741
173	0xbdc6ba54	-0.09703508
174	0xbdaf3d63	-0.085566305
175	0xbe2a067b	-0.16604035
176	0xbd70db3a	-0.05880282
177	0xbe52f5eb	-0.20601623
178	0xbdd2d232	-0.10293998
179	0xbe0b2b4d	-0.13590737
180	0x3d495f49	0.049163137
181	0xbd674eee	-0.056471758
182	0x3d70e46b	0.058811586
183	0x3cbd5fea	0.023117024
184	0xbd15c9e3	-0.036569487
185	0x3d6adb80	0.057338238
186	0xbd11d86f	-0.035606798
187	0xbd14e261	-0.036348704
188	0xbd63fcb0	-0.055660903
189	0x3e162207	0.14661418
190	0x3d16ab57	0.036784496
191	0xbba3dacc	-0.005000448
192	0xbe16eac0	-0.14737988
193	0xbd371437	-0.044697013
194	0xbd36b16d	-0.0446028
195	0xbe07a176	-0.13245186
196	0x396e348c	0.00022717024
197	0xbb003959	-0.0019565432
198	0x3d74eb1d	0.059794534
199	0x3cc7cce8	0.0243897
200	0x3cbc803c	0.023010366
201	0x3d1a04d9	0.03760228
202	0x3d5d4381	0.054019455
203	0x3dd66ffe	0.104705796
204	0x3d2aabf5	0.041667897
205	0x3d71a325	0.058993477
206	0x3d5341a5	0.051576275
207	0x3a167970	0.00057401415
208	0x3e52f068	0.2059952
209	0x3e32bf44	0.17455775
210	0xbc9f72e0	-0.019463956
211	0x3d429d3f	0.047513243
212	0x3e055f2e	0.1302459
213	0x3db9d5cf	0.09073984
214	0xbcab0ede	-0.020881113
215	0x3dc5ba91	0.09654725
216	0x3dafc0a5	0.08581666
217	0x3c2628a2	0.010141524
218	0x3d9043d8	0.0704419
219	0xbd80a001	-0.06280518
220	0xbcc9940e	-0.02460673
221	0xbd6f95bd	-0.05849241
222	0xbb304867	-0.0026898624
223	0x3d022afc	0.031779274
224	0x3d0987ec	0.03357689
225	0x3d40fa0c	0.047113463
226	0x3c95973d	0.018260593
227	0x3cd59734	0.026073076
228	0xbd58bd44	-0.052914873
229	0xbbb1f481	-0.0054307585
230	0x3d6a9e44	0.05727984
231	0x3d81e30c	0.06342134
232	0x3d7c467d	0.06159066
233	0x3de3a736	0.11115877
234	0x3d6347dc	0.055488452
235	0x3c0ab030	0.008464858
236	0x3bd334e3	0.0064455136
237	0x3d63dfd6	0.05563339
238	0xbd3ada0d	-0.045618106
239	0x3dabc6f1	0.083875544
240	0x3d2b7098	0.041855425
241	0xbc3b9b42	-0.011450591
242	0x3d248c01	0.04017258
243	0x3bdc4d5b	0.0067230887
244	0x3df2562a	0.11832841
245	0x3d594a35	0.053049285
246	0x3e279cdc	0.16368431
247	0x3e00d99d	0.12583013
248	0x3dbdc676	0.09266369
249	0xbce245a2	-0.027621094
250	0xbd86c95c	-0.06581375
251	0xbd692c10	-0.056926787
252	0xbc60380b	-0.013685237
253	0xbd39c1bb	-0.04535077
254	0xbc865135	-0.016396144
255	0xbd1a8a96	-0.037729822

net_stack.5.bias f4 [64]
0	0xbe24ca35	-0.16092761
1	0xbe2bce8f	-0.16778015
2	0x3d9873eb	0.074439846
3	0x3e1d4cb2	0.15361288
4	0xbdc4cef1	-0.096097834
5	0x3ea2c98d	0.31794396
6	0x3d3fa896	0.046791635
7	0xbd4037b7	-0.046928134
8	0x3bc37934	0.0059653763
9	0x3e3b2ba1	0.18278362
10	0x3abecade	0.0014556309
11	0xbe92272c	-0.2854551
12	0xbdb87be0	-0.09008002
13	0xbdc17fcc	-0.094482034
14	0x3d2f21ce	0.042756848
15	0xbd1a24b6	-0.037632667
16	0x3d91608f	0.07098495
17	0x3c8625db	0.016375473
18	0xbda4d1d3	-0.08047833
19	0x3e10532e	0.1409423
20	0x3e151112	0.14557293
21	0xbd421ab5	-0.04738875
22	0x3e20fb8d	0.15720959
23	0x3ddb2ed7	0.10702293
24	0x3be0157e	0.0068384996
25	0x3d61546d	0.055012155
26	0xbe3bc29c	-0.18335956
27	0x3e4d25aa	0.20033899
28	0xbdbcdf24	-0.09222248
29	0x3de149f1	0.11000431
30	0xbd1e76cf	-0.038687523
31	0x3d2abe56	0.041685425
32	0x3cfea1f4	0.031083085
33	0xbd72c0b3	-0.059265804
34	0x3c5f0a06	0.01361323
35	0xbd331726	-0.043723248
36	0xbd4726d7	-0.048621025
37	0xbe2ac47d	-0.16676517
38	0x3d389133	0.045060348
39	0xbe15af9f	-0.14617775
40	0xbd79ff09	-0.061034236
41	0x3e01a5a9	0.1266085
42	0xbd91e5ca	-0.07123907
43	0xbc901494	-0.017587937
44	0xbd88ec9b	-0.06685754
45	0x3de31bed	0.11089311
46	0xbdc44d7b	-0.09585091
47	0xbddf8385	-0.10913757
48	0xbd9b2252	-0.075749055
49	0x3e6d1733	0.23153381
50	0x3dfb911a	0.12283535
51	0x3e4956bb	0.19661991
52	0x3d804097	0.062623195
53	0xbe011b2d	-0.12608023
54	0x3d10bf7b	0.03533886
55	0xbdaa507e	-0.08316134
56	0x3e17da20	0.14829302
57	0x3e2b3341	0.1671877
58	0x3d539b4b	0.05166177
59	0x3eb6b588	0.35685372
60	0x3b48d994	0.0030647265
61	0x3d1433d6	0.036182247
62	0xbb0b9293	-0.0021297082
63	0xbe18a3ac	-0.14906186

net_stack.9.weight f4 [32, 4096]
0	0xbc83e2ed	-0.016099418
1	0xbc055096	-0.008136889
2	0x3c02422a	0.007950345
3	0x3bf36986	0.007428351
4	0x3b9f797c	0.004866777
5	0x3bb981f2	0.0056612426
6	0xbc883197	-0.016625209
7	0xbc119a70	-0.008886918
8	0xbb72b7ed	-0.0037035898
9	0xbbb5e6f6	-0.0055512143
10	0xbb5e6bf7	-0.0033938864
11	0xbc171e9b	-0.0092236055
12	0x3bd72cee	0.0065666353
13	0x3c465980	0.012106299
14	0x3c246346	0.010033434
15	0x3b9b4f62	0.004739688
16	0x3c96e2f4	0.018418767
17	0x3bc148a0	0.00589855
18	0xbc97ab64	-0.018514343
19	0xbc89060f	-0.016726522
20	0x3ca86553	0.020556128
21	0xbc38c09a	-0.011276389
22	0xbc799d37	-0.015235237
23	0xbc484045	-0.012222354
24	0xbcaa781e	-0.02080923
25	0xbc64828f	-0.013947143
26	0x3ab80ad3	0.0014041312
27	0xbca3a8e1	-0.019977989
28	0xbb5ff3e6	-0.0034172474
29	0x38eaa1ce	0.00011188128
30	0xbb3d9a2f	-0.0028931012
31	0xbb9c289a	-0.0047655823
32	0x3c57e572	0.013177263
33	0xbc98f86a	-0.01867314
34	0xbc8a4cae	-0.016882267
35	0x3bc0f892	0.005889007
36	0xbbf56a34	-0.007489467
37	0xbc90689e	-0.01762801
38	0xbc02d902	-0.007986309
39	0x3bf35eef	0.0074270885
40	0xbb9c7e54	-0.0047758017
41	0xbb56b79e	-0.0032763253
42	0x3c174322	0.009232314
43	0xbc8b6212	-0.017014537
44	0x3bc0034c	0.005859768
45	0x3b5a5b82	0.0033318703
46	0xbca7fca7	-0.020506216
47	0xbbe02914	-0.0068408344
48	0x3c01eda3	0.007930192
49	0xbbb48677	-0.0055091935
50	0xbb107e81	-0.0022048058
51	0x3b039569	0.002007807
52	0x3aa96023	0.0012922328
53	0xbca624d4	-0.020281233
54	0xbc4189b2	-0.011812614
55	0x3bc96ce4	0.006147014
56	0xbc48084a	-0.0122090075
57	0x3c15544e	0.009114338
58	0x394711e0	0.00018984778
59	0xbcac6756	-0.021045368
60	0xb9f43f02	-0.0004658625
61	0xbbf0fe43	-0.007354529
62	0x3c77a7a8	0.015115656
63	0xbc42e5e5	-0.011895631
64	0xbbbfd7a0	-0.005854562
65	0x3c7fac06	0.015604978
66	0xbba47398	-0.0050186627
67	0xbbeff340	-0.007322699
68	0xbbe2b804	-0.006918909
69	0x3c335256	0.010944923
70	0xbb765e60	-0.0037592873
71	0x3bc08d48	0.005876217
72	0xbc473fca	-0.012161205
73	0x3c3a7062	0.011379333
74	0x3cab8769	0.020938592
75	0x3aa0d0e0	0.0012269281
76	0xbc528e70	-0.012851343
77	0x3b6bb250	0.0035964437
78	0xbbe1c19c	-0.006889535
79	0xbc45180f	-0.012029662
80	0xbc095f02	-0.008384468
81	0x3c487882	0.012235763
82	0x3c660fc2	0.014041843
83	0xbc32919d	-0.010898975
84	0xbb500ab8	-0.003174467
85	0xbbc18200	-0.00590539
86	0x3ba1c2fc	0.004936574
87	0xbc6aebe6	-0.014338469
88	0x3c1fdfb2	0.009757923
89	0xbc5d9ee2	-0.01352665
90	0x3c5644d2	0.0130779315
91	0xbc65b2ba	-0.0140196625
92	0xba1c9360	-0.00059728883
93	0x3c3ada93	0.011404651
94	0x3a670d80	0.00088139623
95	0xbb0ef6a0	-0.002181448
96	0xbb1303c0	-0.0022432655
97	0xbc3a19fc	-0.011358734
98	0xbb83f0d2	-0.0040265108
99	0x3b0f4870	0.0021863244
100	0x3bdee7f4	0.0068025533
101	0xbc29f470	-0.01037322
102	0x3b18bb0d	0.002330485
103	0x3c703f84	0.014663581
104	0x3c46b5f1	0.012128339
105	0xbc5d3e66	-0.0135036465
106	0xbb4b2a08	-0.0031000394
107	0xbc0bb7fe	-0.008527754
108	0x3c98d1e8	0.018654779
109	0x3b820fcc	0.0039691683
110	0x3bd65de4	0.0065419544
111	0xbc4a145c	-0.012333956
112	0xbb7e9700	-0.0038847327
113	0xbc84a89c	-0.01619368
114	0xbc6249de	-0.013811557
115	0xbc1e9b63	-0.009680602
116	0xbc5859c8	-0.013204999
117	0x3b643f0a	0.0034827613
118	0x3a2b9080	0.00065446645
119	0x3c0dafb8	0.008647852
120	0x3be96775	0.0071229287
121	0x3c12cf84	0.008960608
122	0x3bff495a	0.0077907266
123	0x3bbaa979	0.0056964722
124	0xbc54d4d9	-0.0129902
125	0x3caee426	0.021349024
126	0x3bc2b340	0.0059417784
127	0x3c00b900	0.007856607
128	0xbc8ef22a	-0.017449457
129	0xbc18d256	-0.009327492
130	0x3be5a1d7	0.007007818
131	0x3b658d2d	0.0035026774
132	0xb99afdec	-0.00029562355
133	0xbbffa3a1	-0.0078014885
134	0xbc12532d	-0.008930963
135	0xbbc48f25	-0.0059985095
136	0xbc586acf	-0.013209059
137	0xbc930184	-0.017945059
138	0xbc298d0f	-0.010348572
139	0xbc451acd	-0.012030316
140	0xbb96027a	-0.004577932
141	0xbc557022	-0.013027223
142	0x3b12ea8f	0.002241764
143	0xbc31cfb3	-0.010852742
144	0xbbaa724a	-0.0052016126
145	0x3bab24e7	0.005222905
146	0xbb06cbbf	-0.002056822
147	0xbc64b2f6	-0.013958683
148	0xba86751b	-0.0010258289
149	0xbad337ac	-0.0016114614
150	0xbca4057c	-0.020022146
151	0x3c16825a	0.009186352
152	0x3bcd3243	0.006262095
153	0xbbf59318	-0.0074943416
154	0x3bca24dd	0.006168945
155	0x3b04e82a	0.0020279982
156	0xbb06f0c6	-0.002059029
157	0xba97f4b3	-0.0011593312
158	0xbc251494	-0.010075707
159	0x3bdfd0b7	0.0068303007
160	0xbc655392	-0.0139969755
161	0x3bf22fce	0.0073909527
162	0xbbf5abff	-0.00749731
163	0xbc95b425	-0.018274376
164	0x3b2a7b4f	0.002601344
165	0xb977e055	-0.00023639326
166	0xbc558243	-0.013031545
167	0xbac5a2f6	-0.0015078473
168	0xbc99a5f8	-0.018755898
169	0xbc8594c0	-0.016306281
170	0x39287c41	0.00016068017
171	0xbbc777a6	-0.0060872613
172	0x3befad9f	0.0073143984
173	0xbbfe8adc	-0.007768018
174	0xbb8d1d50	-0.004306473
175	0xbbf3508c	-0.0074253734
176	0xbaf9e0d2	-0.0019064194
177	0xbc8c16fd	-0.017100805
178	0xbcad7337	-0.021173103
179	0xbc3f52e7	-0.01167748
180	0xbc147c62	-0.009062858
181	0x3b638139	0.0034714474
182	0x39899e3f	0.0002624858
183	0xbc2955fb	-0.010335441
184	0xbc916016	-0.017746013
185	0xbc0fca69	-0.008776286
186	0xba990f89	-0.0011677603
187	0xbcb0ebff	-0.021596907
188	0x38a2ee6a	7.76917e-05
189	0x3b6f02a5	0.0036470082
190	0xbc063cf7	-0.008193246
191	0xbbe80752	-0.007080951
192	0xbba74015	-0.0051040747
193	0xbc5e23ae	-0.013558311
194	0x3ad11e00	0.0015954375
195	0xbacef897	-0.0015790638
196	0xbc8fe748	-0.017566338
197	0x3aebe12e	0.0017996186
198	0xbc6eaa48	-0.014566965
199	0x3c014f0b	0.0078923805
200	0xbc7ad360	-0.015309185
201	0xbbbc534b	-0.005747234
202	0xbbb72931	-0.005589627
203	0x3bf18b54	0.0073713455
204	0xbc95a48f	-0.018266944
205	0xbc9ba6ca	-0.01900043
206	0x3b15e595	0.0022872437
207	0xbc8d352e	-0.017237272
208	0xbc98a618	-0.018633887
209	0xbb889cc4	-0.0041690785
210	0xbc98c61c	-0.018649153
211	0xbbf29ed9	-0.00740419
212	0x3be327f4	0.006932253
213	0x39e3518d	0.00043357574
214	0xbc093259	-0.00837382
215	0xbc9fa7b2	-0.019489143
216	0x3b97cd2a	0.0046326118
217	0x3aec5e99	0.0018033563
218	0xbb837940	-0.004012257
219	0x3c75a11e	0.014992027
220	0xbb1a1d8d	-0.0023516149
221	0x3bcc7101	0.006239057
222	0xbca685fe	-0.020327564
223	0xbb7ff3ec	-0.00390553
224	0xbc916b91	-0.017751487
225	0xbc401742	-0.011724295
226	0x3be4dd50	0.0069843903
227	0x3b7b46e1	0.0038341808
228	0xbba41600	-0.0050075054
229	0xbb8afd60	-0.0042416304
230	0xbca79560	-0.02045697
231	0xbcac7607	-0.021052374
232	0xbc3e245f	-0.011605351
233	0xbbbaa0e5	-0.0056954497
234	0x3c14452a	0.009049693
235	0x3c0d4df3	0.008624542
236	0xbb9075bd	-0.0044085667
237	0xbbec14a3	-0.0072046085
238	0xbca76468	-0.02043362
239	0xbbe8b14e	-0.0071012145
240	0x3ae27437	0.0017277066
241	0xbb978d9d	-0.004625036
242	0x3b4fb051	0.0031690786
243	0xbbbcd85b	-0.0057630963
244	0xbca2ed49	-0.019888537
245	0xbc146367	-0.0090569025
246	0xbabf96a0	-0.0014617033
247	0xbcad150e	-0.021128204
248	0xbc7ad43c	-0.01530939
249	0xbc56b398	-0.013104342
250	0xbca8363a	-0.02053367
251	0xbc7595aa	-0.014989296
252	0xbc119568	-0.008885719
253	0x3bbcbcf8	0.0057598315
254	0xbc0ba41f	-0.008523016
255	0xbc93475f	-0.017978368

net_stack.9.bias f4 [32]
0	0x3b320740	0.0027164966
1	0x39dff5fa	0.0004271714
2	0xbdc9d9ef	-0.09856021
3	0x3dd530a3	0.10409667
4	0x3dfea506	0.124338195
5	0xbc38e15e	-0.0112842005
6	0xb8d2a3c7	-0.00010044086
7	0xbd768888	-0.0601888
8	0xbc46ac97	-0.01212611
9	0xbc130cfb	-0.008975263
10	0xbb8fb8e8	-0.004386056
11	0x3b51a697	0.0031990164
12	0x3b9a5d6c	0.004710844
13	0x3b91f133	0.004453802
14	0x3d4df484	0.050282016
15	0xbc53e10f	-0.012932076
16	0x3e1edd81	0.15514185
17	0x3db58a9b	0.088643275
18	0xbbb2a93c	-0.005452303
19	0x3e136fdc	0.1439814
20	0xbdeada5c	-0.1146743
21	0x3bb1b45a	0.005423111
22	0xbb93badb	-0.004508359
23	0x3e2b2a92	0.16715458
24	0xbc102702	-0.008798363
25	0xbd876672	-0.06611337
26	0x3ba56307	0.0050472054
27	0x3dca64cb	0.09882506
28	0x3d438645	0.04773547
29	0x3b1fb303	0.0024368174
30	0x3e157bd9	0.14598025
31	0xbbf6a21b	-0.0075266487

net_stack.11.weight f4 [16, 32]
0	0x3c83210a	0.016006965
1	0xbdb1332f	-0.086523406
2	0xbd623978	-0.055230588
3	0xbe242dff	-0.16033171
4	0x3da3131e	0.07962631
5	0xbc531e2e	-0.012885613
6	0xbe0c727a	-0.13715544
7	0x3d66d6e6	0.056357287
8	0xbe26020b	-0.16211717
9	0x3d4e3ab9	0.05034897
10	0xbd9649de	-0.07338308
11	0xbe027070	-0.12738204
12	0x3d3dbce6	0.046322726
13	0xbdb99f3e	-0.09063576
14	0xbd944a93	-0.072407864
15	0x3dd2e7f7	0.1029815
16	0x3e95ca52	0.2925592
17	0x3df12588	0.11774737
18	0x3da191a6	0.07889108
19	0x3e551d3f	0.20811938
20	0xbe47ae76	-0.19500145
21	0x3c3df278	0.011593454
22	0x3e3d01b0	0.18457675
23	0x3dfe5988	0.124194205
24	0x3c88c7c4	0.016696818
25	0x3dbc4654	0.091931015
26	0x3e07db1f	0.13267182
27	0x3e95522d	0.29164258
28	0xbdf5f2aa	-0.12009175
29	0x3d70c97f	0.05878591
30	0x3da5cb52	0.08095421
31	0x3d67b38e	0.05656772
32	0x3bb68f80	0.0055713058
33	0x3da6dfce	0.08148156
34	0x3dc84ac4	0.097798854
35	0x3ca06e20	0.019583762
36	0xbbe48d6a	-0.0069748657
37	0xbe29c8d0	-0.1658051
38	0xbd9fa775	-0.07795612
39	0x3e07bca1	0.1325555
40	0xbe31776f	-0.17330717
41	0xbd73c680	-0.059515476
42	0xbcdb9c40	-0.026807904
43	0xbd71fe7c	-0.059080586
44	0x3d73c118	0.05951032
45	0xbe399ad6	-0.18125471
46	0xbd4ac153	-0.049500775
47	0x3dd9ab3a	0.10628362
48	0x3e0e3e60	0.13890982
49	0xbdb86c58	-0.0900504
50	0xbddbf281	-0.10739613
51	0x3d287dc8	0.04113558
52	0x3d38e0b9	0.045136187
53	0x3c036e10	0.008021846
54	0xbcb6b938	-0.022305116
55	0xbe21e18b	-0.15808694
56	0x3e0504f7	0.12990175
57	0xbe2652df	-0.1624255
58	0xbde9c089	-0.11413676
59	0xbe0c69e5	-0.1371227
60	0xbe41ba50	-0.18918729
61	0x3d30c4b0	0.043156326
62	0xbe5048af	-0.20340227
63	0x3d68f420	0.05687344
64	0xbe236fd9	-0.15960635
65	0xbe17e859	-0.14834727
66	0x3e453a47	0.19260512
67	0x3d92d104	0.07168773
68	0xbe8ddbe5	-0.2770683
69	0x3b334f53	0.0027360513
70	0xbd2a4a23	-0.04157461
71	0x3d8cf343	0.06882336
72	0xbe8ad51c	-0.27115715
73	0xbd9592d0	-0.07303393
74	0xbdd2797e	-0.10277079
75	0xbc00d8ee	-0.00786422
76	0xbd3a9eb7	-0.04556152
77	0x3ddbac80	0.10726261
78	0xbd340ac1	-0.04395557
79	0xbe1827b5	-0.14858897
80	0xbda0b8e7	-0.07847767
81	0xbe5bdab7	-0.21470152
82	0x3dbbb96d	0.091662265
83	0xbe8512c4	-0.2599088
84	0x3e60bb89	0.21946539
85	0x3e189b1b	0.14902918
86	0xbd036cf8	-0.032086343
87	0x3db87b39	0.09007878
88	0xbe1ed36e	-0.15510342
89	0x3e1dbb61	0.1540351
90	0x3d572d53	0.05253346
91	0x3b5bdcfd	0.0033548467
92	0x3d82000c	0.06347665
93	0xbe16fd73	-0.1474512
94	0x3e3fd999	0.1873535
95	0x3ce94e6d	0.02847978
96	0xbcf6095e	-0.030033763
97	0xb8ae35f4	-8.307016e-05
98	0xbde3c6ee	-0.11121927
99	0x3dd61608	0.10453421
100	0x3cd1a8a6	0.025593113
101	0xbe0ccd7c	-0.13750261
102	0x3e0a5ffd	0.13513179
103	0xbe2a8463	-0.16652064
104	0xbd8c32d7	-0.068456344
105	0x3e28db8d	0.16490002
106	0xbe0a0266	-0.13477477
107	0xbda18726	-0.07887106
108	0x3e16c9fa	0.14725485
109	0x3dc380d7	0.095460586
110	0xbe53abbe	-0.20670983
111	0xbda9eaae	-0.08296715
112	0xbd507358	-0.05089125
113	0x3d4a5965	0.04940166
114	0x3db8b196	0.09018247
115	0x3d30730b	0.043078464
116	0xbe414293	-0.18873052
117	0x3d9fbb39	0.07799382
118	0x3d70635d	0.05868851
119	0xbd9c070a	-0.0761853
120	0x3d77f088	0.060532123
121	0x3d9b1af8	0.07573503
122	0x3e1046f7	0.14089571
123	0x3d8febba	0.07027383
124	0x3dcdfaf5	0.10057632
125	0xbc840676	-0.016116362
126	0xbd9ad7e6	-0.075607106
127	0xbd9070da	-0.07052775
128	0x3cee74cf	0.029108433
129	0xbd63bad3	-0.05559809
130	0x3e29f51f	0.16597413
131	0xbdb3f1f0	-0.0878638
132	0xbd820c77	-0.06350034
133	0x3db58e74	0.088650614
134	0x3d66fa1c	0.056390867
135	0x3e4cdc0a	0.20005813
136	0x3e07ac70	0.13249373
137	0xbe181d00	-0.14854813
138	0x3d695614	0.056966856
139	0x3e1fe7ba	0.1561574
140	0x3df71bc3	0.12065842
141	0x3e0b63b7	0.13612257
142	0xbdd2c4b4	-0.102914244
143	0xbd8ac21a	-0.06775303
144	0xbda84775	-0.08216754
145	0x3e21415c	0.15747589
146	0xbe1f34d7	-0.155475
147	0xbd5d5abe	-0.054041617
148	0x3ca01888	0.019542947
149	0xbe048a76	-0.12943444
150	0xbdcc63fc	-0.09980008
151	0xbe7de057	-0.2479261
152	0xbd27ebc8	-0.040996343
153	0x3e88cd54	0.26719153
154	0xbd0fab20	-0.035075307
155	0xbe11ecf3	-0.14250545
156	0xbe0c886c	-0.13723916
157	0xbd9fe2c3	-0.07806923
158	0xbc592265	-0.013252829
159	0xbb706371	-0.0036680365
160	0xbe1f4d5b	-0.15556853
161	0x3d6f318c	0.05839686
162	0x3e32acfb	0.174488
163	0x3e9327af	0.28741214
164	0xbe32fded	-0.17479677
165	0x3e3889ee	0.18021366
166	0xbda4f9d7	-0.08055466
167	0xbda98046	-0.08276419
168	0xbe398efc	-0.1812095
169	0xbdd56670	-0.10419929
170	0xbe34594e	-0.17612192
171	0xbe0f26e3	-0.13979678
172	0xbd3e8528	-0.046513706
173	0x3d38d1b5	0.045121867
174	0xbd613f50	-0.05499202
175	0x3e29f244	0.16596323
176	0x3d87563e	0.06608246
177	0x3e8eaa73	0.27864417
178	0x3dc1427a	0.094365075
179	0x3c9b9746	0.018993031
180	0x3e131200	0.14362335
181	0x3cf43ba0	0.029813588
182	0x3d3a41cc	0.045472905
183	0xbcb4ac06	-0.022054683
184	0x3b80eddd	0.0039346055
185	0xbe2a9208	-0.16657269
186	0xbdf8ccc7	-0.12148433
187	0x3d5518af	0.052025493
188	0xbe9611b1	-0.29310372
189	0x3dc48ac6	0.095967814
190	0x3e0439cd	0.12912674
191	0x3e27a7ed	0.16372652
192	0x3dc90bb2	0.09816684
193	0x3e211fa3	0.15734725
194	0x3e512751	0.20425154
195	0x3d318529	0.043339882
196	0x3ddeb3d7	0.108741455
197	0x3db342f6	0.08753006
198	0x3c505340	0.012715161
199	0x3e7606d0	0.24026036
200	0xbe426241	-0.18982793
201	0xbd8900f0	-0.06689632
202	0x3e00b54f	0.12569164
203	0xbdc8f993	-0.098132275
204	0x3e1ea28b	0.15491693
205	0xbe220861	-0.15823509
206	0xbe6c6b89	-0.23087896
207	0xbd83c1f1	-0.06433476
208	0x3dd34fea	0.10317977
209	0xbe23e379	-0.16004743
210	0xbd80d1ab	-0.06289991
211	0xbd583058	-0.05278048
212	0x3da0aadc	0.07845089
213	0xbdd5dbcf	-0.10442316
214	0x3ca02838	0.019550428
215	0x3dd9f3e8	0.106422246
216	0x3e0bb0e7	0.13641702
217	0xbd66b002	-0.056320198
218	0xbd35f95c	-0.04442726
219	0x3d92b2b5	0.07162992
220	0xbe25728e	-0.1615698
221	0x3dc214a2	0.09476592
222	0x3d6729d8	0.05643639
223	0xbe1539a3	-0.14572768
224	0xbc702040	-0.0146561265
225	0x3e1d7d8f	0.15379928
226	0x3bb98601	0.0056617265
227	0x3e7779c4	0.24167544
228	0x3dffc1a0	0.12488103
229	0x3e288d1b	0.16460077
230	0x3d2aecac	0.041729614
231	0xbe20b7a8	-0.1569506
232	0x3a2ce41d	0.0006595271
233	0xbdcc3c12	-0.09972395
234	0x3e25fa77	0.16208826
235	0xbc928458	-0.017885372
236	0xbe0b098d	-0.13577862
237	0xbe1b43c2	-0.15162566
238	0xbc9c19f3	-0.019055342
239	0xbdff6101	-0.12469674
240	0x3c9f82c3	0.019471532
241	0x3d796047	0.060882833
242	0xbe05aaa2	-0.13053373
243	0xbe5e3246	-0.21698865
244	0xbe0a11e5	-0.13483389
245	0xbdbdf50f	-0.09275257
246	0xbe33121d	-0.17487378
247	0x3b163066	0.0022917031
248	0x3d650b2c	0.055918857
249	0x3dde30f2	0.10849179
250	0x3d3af584	0.0456443
251	0x3da38820	0.07984948
252	0x3d4e730f	0.050402697
253	0xbd0bee5c	-0.034162864
254	0xbe36c009	-0.17846693
255	0x3e2b20e9	0.16711773

net_stack.11.bias f4 [16]
0	0x3e5131ab	0.20429103
1	0xbde41c88	-0.111382544
2	0x3c88ef7b	0.016715756
3	0x3dd9fc66	0.10643844
4	0xbdf1c70b	-0.118055426
5	0xbd727084	-0.059189335
6	0xbdf04c33	-0.11733284
7	0xbdcc3b82	-0.09972288
8	0xbcc5105a	-0.024055649
9	0x3e0b8f07	0.1362878
10	0x3e289eff	0.16466902
11	0xbdc47743	-0.0959306
12	0xbe35977f	-0.17733572
13	0xbe2236ab	-0.15841167
14	0x3e0929b5	0.13394816
15	0xbe3de8f4	-0.18545896

net_stack.13.weight f4 [10, 16]
0	0xbdf5fdd5	-0.12011305
1	0x3e1b7c46	0.15184125
2	0x3cdd7f48	0.027038231
3	0xbe325b5f	-0.17417668
4	0xbdcf0ae5	-0.101095
5	0xbeabd6fb	-0.33562455
6	0xbe58a320	-0.21155977
7	0x3e904c18	0.28183055
8	0x3e183b42	0.14866355
9	0xbe10d78c	-0.14144725
10	0x3e3797d8	0.17929018
11	0x3e83debc	0.2575587
12	0xbe11ec33	-0.14250259
13	0xbd1d200d	-0.038360644
14	0x3da303af	0.07959687
15	0xbd9e670d	-0.07734499
16	0xbeced55f	-0.40397164
17	0x3ba2010d	0.004943973
18	0x3e6e51c5	0.2327338
19	0xbe0481d5	-0.12940152
20	0x3e01926d	0.12653513
21	0xbe4a684f	-0.19766353
22	0x3e967b48	0.2939093
23	0xbdf6fcb9	-0.12059922
24	0xbee922a5	-0.45534244
25	0xbe0bae2b	-0.13640659
26	0x3de7fdea	0.11327727
27	0xbdfc43e0	-0.12317634
28	0x3db5bc7a	0.0887384
29	0xbd9fe161	-0.078066595
30	0xbe915630	-0.28386068
31	0x3eae783c	0.34076107
32	0x3e0c0149	0.13672365
33	0xbda7b2c3	-0.08188393
34	0xbeb1d274	-0.34730875
35	0xbe886cfe	-0.26645654
36	0xbc2863e8	-0.010277726
37	0x3d453ef3	0.048155736
38	0xbcbebb6f	-0.023282735
39	0xbc994bb5	-0.018712858
40	0x3db145ca	0.08655889
41	0xbdd469dd	-0.10371754
42	0xbd8cabf9	-0.06868739
43	0x3e714558	0.23561609
44	0xbe10c855	-0.1413892
45	0xbe8193fb	-0.25308213
46	0xbec31247	-0.38099882
47	0x3e5098e5	0.20370825
48	0x3e3a67c7	0.1820365
49	0xbe274d32	-0.16338041
50	0x3cfa74c1	0.03057325
51	0xbdb9f1c8	-0.09079319
52	0xbe19e0f6	-0.15027222
53	0xbe27b285	-0.16376694
54	0xbd534347	-0.051577833
55	0xbe256cd4	-0.16154796
56	0x3e18ff19	0.14941062
57	0x3e43af83	0.19109921
58	0xbe02f97c	-0.12790483
59	0xbe49da4e	-0.19712183
60	0x3a3add06	0.0007128272
61	0xbce3921e	-0.027779635
62	0xbda5b96d	-0.08092008
63	0x3e3e7f85	0.18603332
64	0x3e120973	0.14261417
65	0x3e0ed3a2	0.13947919
66	0xbddaa77b	-0.106764756
67	0xbe60780c	-0.21920794
68	0xbe92a24d	-0.2863945
69	0x3d6efb99	0.05834541
70	0xbc85d45f	-0.016336618
71	0xbe8f08da	-0.2793644
72	0xbd94c813	-0.07264724
73	0xbe488e28	-0.19585478
74	0xbd37cc22	-0.04487241
75	0x3e1fb8ca	0.15597835
76	0x3e206fee	0.15667698
77	0x3ecbdd63	0.39817342
78	0xbd529572	-0.051412053
79	0xbe89a241	-0.26881602
80	0x3d86d85b	0.06584235
81	0xbc058db5	-0.008151461
82	0xbdfa2c68	-0.12215501
83	0x3de3f8d6	0.11131446
84	0x3e293082	0.1652241
85	0xbe44ce39	-0.19219293
86	0xbe6c40b2	-0.23071554
87	0xbcef0f2d	-0.029182041
88	0x3cffb95d	0.031216318
89	0x3deb5635	0.11491052
90	0xbe5aadc1	-0.21355344
91	0xbe02bf3d	-0.12768264
92	0xbde84030	-0.11340368
93	0x3e9eb793	0.3099943
94	0x3dc3bbf9	0.09557337
95	0x3eab0a15	0.3340613
96	0xbda4c894	-0.0804607
97	0x3c53b219	0.01292088
98	0xbdacaf66	-0.08431892
99	0xbd7039bb	-0.058648806
100	0xbc6a44aa	-0.014298597
101	0x3d9256b2	0.07145442
102	0xbe34265d	-0.1759276
103	0xbe0ad580	-0.13558006
104	0xbebd69a0	-0.36994648
105	0x3ec3411b	0.3813561
106	0xbdf8e1c7	-0.121524386
107	0x3d825339	0.0636353
108	0x3e30f917	0.1728252
109	0xbdeed1d4	-0.11661115
110	0x3ded3b75	0.11583606
111	0xbea17395	-0.31533495
112	0x3dd52331	0.10407103
113	0x3d138310	0.036013663
114	0xbd0a904a	-0.03382901
115	0x3d347b04	0.04406263
116	0x3e73f424	0.23823601
117	0xbe3cf5aa	-0.18453088
118	0x3ea8aae0	0.32942867
119	0x3da52dc8	0.08065373
120	0x3e79eedf	0.24407528
121	0xbe7aa15a	-0.24475613
122	0xbecd3693	-0.400807
123	0xbd242cd9	-0.040081833
124	0xbe1798e0	-0.14804411
125	0x3e62efd9	0.22161807
126	0x3e5246da	0.2053484
127	0xbc60502a	-0.013690988
128	0x3e95c36f	0.29250666
129	0x3e61f57c	0.22066301
130	0xbe701f5c	-0.23449463
131	0xbe0e55f9	-0.13899983
132	0x3cf562a8	0.02995427
133	0xbe8a3156	-0.26990765
134	0xbe1f62cc	-0.15565032
135	0x3dd12bbc	0.1021342
136	0xbe33d43f	-0.17561434
137	0xbe5eec47	-0.2176982
138	0x3ec77cb5	0.3896233
139	0xbea629b1	-0.32453683
140	0x3e1ae14b	0.15125005
141	0x3d1abb64	0.037776366
142	0xbd92c89a	-0.07167168
143	0xbdf2f6a8	-0.11863452
144	0xbe7d4a9f	-0.24735497
145	0xbd8faad9	-0.070150085
146	0x3e354e43	0.17705636
147	0xbe7b7e5a	-0.24559918
148	0x3ea19d2d	0.31565228
149	0x3d3aa1ee	0.045564584
150	0xbddd4658	-0.10804433
151	0xbec1f0ea	-0.37879115
152	0x3dcd34e3	0.10019853
153	0xbe513302	-0.20429614
154	0x3d401012	0.046890326
155	0xbea6d2db	-0.32582745
156	0x3d8bef14	0.0683271
157	0xbe073a55	-0.13205846
158	0xbe3fd360	-0.18732977
159	0xbe523a2f	-0.20530008

net_stack.13.bias f4 [10]
0	0xbe246112	-0.16052654
1	0xbc486aae	-0.012232466
2	0x3d698ce6	0.057019137
3	0xbdd1aedb	-0.10238429
4	0x3e94807e	0.29004282
5	0xbdba76da	-0.091047004
6	0x3e03f43c	0.12886137
7	0xbe2f4c3b	-0.17118923
8	0x3e7650dd	0.24054284
9	0xbecd7624	-0.40129197
